mnist_mlp.pth (torch, 213212 bytes, 6 tensors)

fc1.weight f4 [64, 784]
00000000: 6d2b c43d 893d b83d a97b 0e3e af1f dc3d
00000010: b24c f33d ce1a e53d c4cc eb3d 71fa b13d
00000020: 81bf ac3d 58bf 053e 42ed b33d d962 b23d
00000030: 3cb6 ed3d 3a89 013e ef60 9d3d a456 953d
00000040: aea2 e23d 30ba b03d 0a4c 933d 7290 e73d
00000050: b6ef c63d 9372 923d 9c58 b23d 3912 a13d
00000060: a8ef fa3d a21c 913d 0e2a 913d 708f ec3d
00000070: f29c d73d 22ee 973d a73a 953d 4fa6 0a3e
00000080: 0b85 d93d c763 8f3d c744 0d3e b4b4 903d
00000090: 50a9 f93d ba5c e03d 176a 063e cdb2 e13d
000000a0: b936 f53d e2fd 063e d1ab ae3d 6915 dd3d
000000b0: 283f b63d a909 a43d 24a1 d83d 79fb ca3d
000000c0: 5a17 f13d 942c 093e c02c 0c3e da9d 063e
000000d0: 8a3b e13d 3dcf d23d 72e5 a33d d794 cc3d
000000e0: ad05 073e 201e b93d e22b b43d 4b77 983d
000000f0: 339a aa3d dbbb d63d 5e22 b63d 0c92 fc3d
00000100: b5a8 0e3e bebd c13d f528 ef3c 7257 40bd
00000110: 1c60 8fbc 6f6d d33d 6f0f c43d 16ee c13d
00000120: d4df ef3d 4d22 a43d d711 bd3d a5ab d13d
00000130: df9c 043e 6682 0f3e 15e1 0b3e 665a ff3d
00000140: 1dc2 0e3e 7822 a63d 7c87 0f3e 6aa6 923d
00000150: 0ebe fb3d bb5a d23d e00f a13d 563e ac3d
00000160: fbc3 a03d 3d94 0d3e 5649 de3d c6d0 a43d
00000170: 729b e83d 89b2 523b c1a2 03bd e9ab a9bd
00000180: b9a7 013d 06ce 863d 263c 533d 233c f43d
00000190: 862c 053e d724 ba3d 7cfb e13d d240 0d3e
000001a0: 4ff4 db3d c741 0c3e e0cd eb3d 747e d83d
000001b0: 8d91 903d 44c7 c03d e388 033e 7ec2 c33d
000001c0: af25 db3d f6f7 e03d 2096 de3d 9ff2 983d
000001d0: 4678 dc3d c5f4 023e ef13 ac3d b04f 30b8
000001e0: 2792 783b 5701 03bd fe43 6c3c 3e30 f1bc
000001f0: 45f0 2a3d b7ee 643d 1bc4 993d 2e7e d23d
00000200: 24ea 9abd e82e dcbc 134e 1b3d 7e03 e63d
00000210: 4bd0 b53d 9478 893c bd13 9ebc c22f 1e3d
00000220: 1e74 bb3d 425f fd3d cb85 aa3d 06f6 dc3d
00000230: 28b6 013e 7ca0 ad3d 5788 af3d 0bb0 d53d
00000240: 72e1 ea3d bb5b c73d 6105 8fbc 0911 c13b
00000250: 1302 713c 6f0a 25bc cb23 533c 24eb 423d
00000260: e46f 183c 7e32 c63b 9cf0 8c3a 2cc8 a1bd
00000270: 655e 64bc 22df 6ebd 0e8e 94ba 1b93 a83d
00000280: edd8 c13d 4019 01bd 2f1e 1fbd 9561 353d
00000290: 82b1 113e 8f36 e23d 146d 993d 89c7 9b3d
000002a0: 5ea0 ff3d a414 f73d 1e51 993d d709 0d3e
000002b0: 0a78 0e3e bdfe 943d 23c3 2fbd b698 62bd
000002c0: 6d56 01bd 4105 d73c 30b8 c13c c03e 8fbc
000002d0: 7704 163d 0909 0cbd 5707 23bd f4fd abbd
000002e0: e30a 99bd db40 bebd dd6c a5bd 8249 f03d
000002f0: 794f 7f3d b9e9 603a e557 25bd b6d4 113e
00000300: ecc0 d33d 4675 e73d eb42 bc3d 8dc0 cf3d
00000310: 54c9 ef3d 8eb0 df3d a402 d13d 489c be3d
00000320: 6565 ef3c e4d7 89bc e8a2 b0bd e03c b6bd
00000330: 0edd 0ebd 6a66 a43c 8960 423d 2a84 8e3c
00000340: 1172 013d 15ef d8bb ba48 9bbd 2d2d 0cbe
00000350: 1bf4 d1bd c5c6 dabd 3862 f6bd cb5b c5bd
00000360: fede 66bb 81c3 093b 5175 b63d 9375 063e
00000370: 8927 c43d 1d78 f83d 01eb 983d b881 0a3e
00000380: ced7 053e 32e9 f13d 3da9 a23d 279c 40bd
00000390: 8832 f6bc c0a9 ebbc 9926 87bd 047e 1bbd
000003a0: 7aad 1a3d 0395 9a3c f5ed 2ebc 6989 0fbd
000003b0: acfb a5bc 2572 4abd e78b f4bd e77c 16be
000003c0: fafc fdbd a2ee ddbd d4e3 e2bd 1777 b6bd
000003d0: 2329 96bd 611a 133c 311f e93d aaf4 783d
000003e0: b1a3 903d 8a27 e23d c238 023e 9330 af3d
000003f0: 327c f23d 9ea0 c93d dc04 973d 0200 2a3c
0.09578595 0.08996112 0.1391436 0.10748231 0.11879863 0.11186753 0.11513665 0.08690346
0.08434964 0.13061273 0.08785488 0.0871026 0.11607024 0.12650004 0.07684504 0.07291916
0.11066185 0.086292624 0.07192238 0.11306848 0.0971369 0.071507595 0.08708307 0.07864804
0.12252742 0.070855394 0.070880994 0.11550796 0.10527982 0.07418467 0.07286578 0.13540004
0.10621079 0.07001453 0.13795768 0.070657164 0.12190497 0.10955186 0.13126408 0.11020432
0.11973328 0.13182786 0.08528865 0.10795099 0.08898765 0.08009655 0.1057761 0.09911246
0.11772032 0.13395911 0.13688946 0.13146153 0.10997684 0.10293434 0.080027476 0.099893264
0.13185759 0.09038949 0.087974325 0.07444628 0.083301924 0.10485049 0.08893274 0.12332544
0.13931544 0.094600186 0.029194335 -0.046958394 -0.017501883 0.10323607 0.09573256 0.094692394
0.11712614 0.08014355 0.09231918 0.10237817 0.12950467 0.14014587 0.1366008 0.12468414
0.13941236 0.08112043 0.14016527 0.07160647 0.122921094 0.10271212 0.07864356 0.08410327
0.0784988 0.1382608 0.108538315 0.08047633 0.11357774 0.0032149872 -0.032137636 -0.082847424
0.031654093 0.065822646 0.051571034 0.11925533 0.13005266 0.09089058 0.11034295 0.13794258
0.107399575 0.13696967 0.11513877 0.10570994 0.070590116 0.09413007 0.12845187 0.09558581
0.10700547 0.10984795 0.10868478 0.07468151 0.10765128 0.12788685 0.084022395 -4.2035885e-05
0.003792891 -0.0319837 0.0144205075 -0.029441949 0.041733045 0.05589172 0.07508107 0.10277973
-0.0756419 -0.026877835 0.037916254 0.11231135 0.08877619 0.016781129 -0.019296521 0.038619764
0.09153007 0.123716846 0.083263 0.10789113 0.12667143 0.084778756 0.08570927 0.10433968
0.114687815 0.09734293 -0.01745862 0.0058919233 0.014709967 -0.010073288 0.012886952 0.04758753
0.009304021 0.0060484996 0.001075286 -0.07899508 -0.013938521 -0.058318265 -0.001133384 0.08231183
0.094652034 -0.03151822 -0.038847145 0.044282515 0.1422787 0.110455625 0.07491508 0.07606418
0.124817595 0.12064484 0.07486175 0.13773285 0.13912979 0.0727515 -0.042910706 -0.055321418
-0.031576563 0.026247622 0.023647398 -0.017485976 0.03662535 -0.034188304 -0.03980192 -0.08398047
-0.074727796 -0.09289714 -0.08077405 0.117327705 0.06233165 0.0008579749 -0.040367026 0.14241299
0.10339531 0.11301665 0.09192451 0.10144148 0.11708322 0.10922347 0.10205582 0.09307152
0.029223153 -0.016826577 -0.08624822 -0.0889833 -0.034878783 0.020068366 0.047455344 0.017397005
0.031602923 -0.0066202977 -0.07582231 -0.13689108 -0.102516375 -0.106824435 -0.120304525 -0.09636649
-0.0035228129 0.002102107 0.08909095 0.13130789 0.09577853 0.12132285 0.074666984 0.13526046
0.13070604 0.118120566 0.07942436 -0.04702392 -0.030053392 -0.028767467 -0.06599159 -0.037961975
0.037763096 0.018869882 -0.010676851 -0.035043154 -0.020261608 -0.049425263 -0.11940747 -0.14696084
-0.12401767 -0.10836531 -0.11078611 -0.08909433 -0.07332065 0.008978457 0.113829024 0.060780205
0.07062472 0.11042698 0.12716964 0.08554187 0.118400946 0.098450884 0.07373974 0.010375978

fc1.bias f4 [64]
00000000: 8422 e6bd 1e41 06bf cdf6 66bf 20cb d1be
00000010: 67d8 dbbe ee9e 93be 61e0 e1bc bfd0 38bf
00000020: ba8c 11be 8f85 17bf 706f 82bd 35ad 4dbd
00000030: 4fb1 c6be a39a a9bd 2970 39bd ceea 73bd
00000040: 713b 96be 12d8 f1bd f271 ebbd 1a0e ffbe
00000050: 1e71 21bf b4ae 94be 7324 f8be 13b9 9cbf
00000060: 8df6 8dbd 6416 acbe 896c 45be f036 81bd
00000070: a53b 13bd 254d a3be c182 36bd eadc f9bc
00000080: 73a8 71be 1f1a c5be cc52 babd b18b c4be
00000090: 9a88 0ebf 408d eabe 38f3 afbd adc5 34be
000000a0: 3cd1 35bf cfd7 87be f3ac 6ebd 2cb0 a3bd
000000b0: 547e 7ebd aad7 44be 2df1 ccbe d6ba 9fbe
000000c0: d32e 16bf 06f0 5fbe c674 57be c086 71bd
000000d0: afbd 0abe 5d4c 32bf 10c5 f0be 4582 e5bd
000000e0: 1bd5 26bf 8de3 06be 4e43 a5be 845f 96bd
000000f0: d9e8 043e 1a18 97be 0ad5 96be d4df 95be
-0.11237052 -0.5244311 -0.9022034 -0.40975285 -0.4293854 -0.2883219 -0.027572813 -0.7219352
-0.14213839 -0.5918817 -0.06368911 -0.05021401 -0.3880715 -0.08281448 -0.04527298 -0.0595501
-0.29342225 -0.1180879 -0.11496343 -0.49815446 -0.6306323 -0.29039538 -0.4846531 -1.224398
-0.069317915 -0.33610833 -0.19279684 -0.063093066 -0.035945553 -0.31894794 -0.04455829 -0.030500848
-0.23599415 -0.3849649 -0.090978235 -0.38387826 -0.5567719 -0.4581089 -0.08591312 -0.17653532
-0.7102239 -0.26531836 -0.058270406 -0.079925865 -0.062132195 -0.19222894 -0.40027753 -0.31197232
-0.586652 -0.21868905 -0.2104064 -0.0589664 -0.13548921 -0.6964777 -0.47025347 -0.112064876
-0.65168923 -0.13172741 -0.32277912 -0.07342437 0.1297945 -0.29510576 -0.2945941 -0.2927233

fc2.weight f4 [32, 64]
00000000: 329c 16ba 9895 d2bd 78fb 88bc fdd9 16be
00000010: 869f 32be 6324 3bbe 99df e3bd 17a4 cfbe
00000020: 59da 4abc 23f2 61be d6f1 df3c 64dd be3b
00000030: d216 e0bd e7da 593c 1818 253d bd6d be3c
00000040: a363 b3be db52 423d 9eb6 22be 9f4a cbbd
00000050: 20aa 14be 1ec5 90be afc2 0abe 0296 9fbe
00000060: 304b a93c 6148 2fbe 91cc 94ba dce5 063d
00000070: 655e ef3c 785d 9abe 94c4 26be f65d bdbd
00000080: efc4 c0be d02d fdbc 9a3a 52bd 8efc a9bc
00000090: bcc4 1abe 3da2 e3bd a377 cebd 8c78 b0be
000000a0: 8354 2dbe bd79 e0bd a46a 92be 9186 6ebd
000000b0: a6db a43b 9268 b4bc b10e 19be 5978 95be
000000c0: 65e3 2bbe 3daf 7dbe cc08 d13d 9644 14bb
000000d0: 5b22 c3be 130b 58be d6c5 28be 0d87 24be
000000e0: c630 46be 19c5 2a3e a04d 99be 6b29 4abe
000000f0: 4a3c 38be 5840 643d 7a1f a2be 16ef 65be
00000100: 8245 a43c 14e1 c8be 34a3 e6bd 1e98 07bf
00000110: 7fee 3cbf 6d24 8ebe 064a 473d ccac 7fbe
00000120: c420 d13d f985 d2bb 8f42 8bbd f4fe 2fbd
00000130: 223c 323c 7aff a13c ad5c 11bd 3212 abbd
00000140: 93b4 04be 0cee 1bbe ef0e 923d be0b 2c3f
00000150: 3428 ba3d 5edb e93d 6a72 293e 0b6d 123f
00000160: 0aa2 d83c e2a9 2a3e ab5e e13d 48b5 3dbd
00000170: 1904 733c 67ac 613f a30d e23d 81e8 19be
00000180: 7f60 aebe 12ed 8cbe 5be4 f63d 6b68 0e3e
00000190: 4ffa bfbe 8631 a53e f883 573d 4ea8 fe3c
000001a0: 3d65 c1bf f965 9dbe a03b 213f da41 9cbd
000001b0: be7f 073d 2e2d b3be 9090 a2bd 879f 0abf
000001c0: 8d9b 37bf cdbe 873e ccb9 ff3d 2292 0abe
000001d0: 9b79 733e d567 313f 09f9 8eba 01a4 653d
000001e0: 6917 a5bf 06b8 08be 613f 6abe 154e b6be
000001f0: c227 70bc 05ff 3a3d df51 56be 5efc e13c
00000200: 81ba 823d efc6 52be 28f9 0b3f fd7b aebf
00000210: 82e3 2cbf bba8 983e 66d2 3abe b476 c4be
00000220: b2c5 88bb f8dd bdbe 8e63 b1bc 6d14 b4bd
00000230: 50bb d4be 0cfb 173e 86f5 c53c d0b8 36be
00000240: 1bc5 ecbe b56a a4bd 2ba5 243d a8d4 5fbd
00000250: 15e5 d9be 8006 043f 060a a8be 0a6c 32bf
00000260: ffc3 1f3d cf55 83bf 8288 83bd fa2a 1dbe
00000270: 6871 a53c fcce e33c dbce 20bd d24e 65bc
00000280: 8494 983e 3ea4 153d 6271 58bc 33aa b2be
00000290: 344b 983e 3d0b 08bf e0bc d23d 85ff e1bd
000002a0: 8e66 cebe 0d35 c8be 4434 6ebb 7a3c 24be
000002b0: 94c2 283e d2b6 14be 1353 ab3b f4ba b9bf
000002c0: 2f81 24be fe10 c3bf 037a 94bc ff26 4d3d
000002d0: bdb2 a5bf 4e4b 80bd 2c53 8fbe efcc 20be
000002e0: 9f94 fdbe 1199 1e3d 2eae bebf c7e1 04bf
000002f0: a984 ebbd 3fe1 aebd 510e e2be 503f c83e
00000300: a406 adbd 1835 a03c 1402 febd e872 7fbd
00000310: 9ea2 f1bd 4eb8 78be e0e7 fcbb ab7d 7cbe
00000320: d419 07bd e6d2 2bbd 283c 693d 966c c3bd
00000330: af48 cebd b1bf 1abb 4a1d e2bc 1e5f ef3d
00000340: e59f ebbe c999 313c 96a1 38be bba3 72bd
00000350: 903d 4dbc fa3d b9be 342a 43bd 3673 94be
00000360: f077 743d 381c 79be 8d15 693d dc5c aebd
00000370: 20ef b13c 4cee 93bd 6c03 f4bd 1a88 f1bd
00000380: 1693 32bd ae48 79be 761b 85bd 28b0 c5be
00000390: 23fb 4e3b 808a 84be e69c a83d 4efa 653b
000003a0: 1658 92be 601e f0be adf7 1abe 6202 82bd
000003b0: f86d bebd 8407 513d ada9 debd 498d babd
000003c0: 0fb6 6fbc 3448 933a c084 3c3d 18c9 e9bc
000003d0: 6bf5 81bd 0687 7cbd 51b8 91ba d4b1 45bd
000003e0: be51 b0be 72b6 af3d 6e0a b6be 924d 9ebe
000003f0: 4f61 36be 3675 8c3d c6ca 9cbd 2332 19be
-0.0005745321 -0.10282439 -0.016721472 -0.14731593 -0.17443666 -0.18275599 -0.11126632 -0.40554878
-0.01238116 -0.22065024 0.027336996 0.0058247317 -0.10941853 0.013296819 0.04030618 0.023245687
-0.35036954 0.0474423 -0.15889975 -0.09926342 -0.14518023 -0.28275388 -0.13550828 -0.31169134
0.020665735 -0.17117454 -0.001135247 0.032934055 0.029219816 -0.30149436 -0.16285926 -0.09246437
-0.37650248 -0.030905634 -0.051325418 -0.02075031 -0.1511411 -0.11114929 -0.10081413 -0.3446697
-0.1692677 -0.1096072 -0.28596985 -0.0582338 0.005031067 -0.02202252 -0.1494701 -0.2919338
-0.16785963 -0.2477388 0.10206756 -0.0022623888 -0.3811215 -0.21097974 -0.16481718 -0.16067143
-0.19354543 0.1667675 -0.29942036 -0.19742362 -0.17991748 0.055725425 -0.3166464 -0.22454485
0.020052675 -0.3923422 -0.11261597 -0.5296649 -0.73801416 -0.27762166 0.04865458 -0.2496826
0.10211328 -0.006424662 -0.067998044 -0.04296775 0.010878595 0.019775141 -0.035488773 -0.0835308
-0.12959509 -0.15227526 0.071317546 0.6720542 0.090896994 0.11418794 0.16547552 0.57197636
0.026444454 0.16666368 0.110043846 -0.04631546 0.01483252 0.8815369 0.11037757 -0.150301
-0.34057996 -0.2752462 0.12055274 0.1390702 -0.37495658 0.32264346 0.05261609 0.031086113
-1.510902 -0.3074186 0.62981606 -0.07629748 0.03308081 -0.34995407 -0.07937729 -0.5414967
-0.71721727 0.26512757 0.1248661 -0.13532308 0.23776858 0.6929906 -0.0010907958 0.05606461
-1.2897769 -0.1335145 -0.2287574 -0.35606447 -0.0146579165 0.04565336 -0.20929669 0.027586158
0.06383229 -0.205837 0.5467706 -1.3631588 -0.6753465 0.2981623 -0.18244323 -0.38371813
-0.0041739577 -0.3708341 -0.021653917 -0.087929584 -0.41549158 0.1484186 0.024164926 -0.17843938
-0.4624413 -0.08028165 0.04019658 -0.054646164 -0.42557588 0.5157242 -0.32820147 -0.69696105
0.039005276 -1.0260562 -0.06422521 -0.15348426 0.020195678 0.027808659 -0.039259773 -0.013995843
0.29800808 0.036533587 -0.013210626 -0.34895477 0.29744875 -0.5314215 0.10289931 -0.110350646
-0.40312618 -0.39102975 -0.003634707 -0.16038695 0.16480476 -0.14522865 0.005228409 -1.4510179
-0.16064905 -1.5239561 -0.018124586 0.050086018 -1.2945172 -0.06264363 -0.27993143 -0.15703176
-0.4952745 0.038720194 -1.4896905 -0.5190701 -0.11499912 -0.08539056 -0.44151548 0.39110804
-0.08448532 0.019556567 -0.1240274 -0.062365443 -0.11798595 -0.24289057 -0.0077180713 -0.24657314
-0.032983616 -0.041949175 0.056942135 -0.095421955 -0.10072457 -0.0023612792 -0.027601857 0.11688064
-0.46020427 0.010839888 -0.1803039 -0.059238177 -0.012526885 -0.36180097 -0.04764767 -0.2899415
0.059684694 -0.24327171 0.056905318 -0.08513805 0.021720469 -0.07223186 -0.11914715 -0.117935374
-0.043597303 -0.24344131 -0.064993784 -0.3861096 0.0031582795 -0.25886917 0.08233051 0.003509182
-0.2858283 -0.46898174 -0.15133543 -0.06348111 -0.092983186 0.051032558 -0.10872207 -0.09108979
-0.0146308085 0.0011236728 0.046025038 -0.028538272 -0.06345638 -0.061652206 -0.0011117553 -0.048265293
-0.34437364 0.085797206 -0.35554832 -0.30918556 -0.17810558 0.06858294 -0.076558635 -0.14960532

fc2.bias f4 [32]
00000000: ee7d 4bbe f241 3dc0 e766 dcbf 98e4 2bbf
00000010: 4365 ff3f 51a2 44c0 76dd 2dc0 bfd7 89bf
00000020: 89a7 4ac0 4b12 d5bf 385c 99bf 37af f3bf
00000030: 9d87 c7bf 4e1a e4bf fb6a 3dc0 4be8 b1bf
00000040: f879 45c0 e334 2ec0 9ef0 e6bf 8e38 8240
00000050: a6ce 4dbf 4c11 60c0 21f2 83be d31b 4ebf
00000060: 5715 14bf ad38 13bf 47a6 fdbe a94e f5be
00000070: c729 04c0 b51d 58c0 1d06 dbbf 84a6 b140
-0.19872257 -2.95715 -1.7218903 -0.6714568 1.9952778 -3.072407 -2.716642 -1.0768965
-3.1664755 -1.6646208 -1.1981268 -1.9037846 -1.5588261 -1.7820528 -2.9596546 -1.3899015
-3.0855694 -2.721978 -1.804218 4.0694036 -0.80393445 -3.5010557 -0.25770667 -0.80511206
-0.5784506 -0.57508355 -0.49540922 -0.47911575 -2.06505 -3.3768132 -1.7111241 5.5515766

fc3.weight f4 [10, 32]
00000000: 9724 f1bd 1575 06be 5a5c 56bc 723e 44bd
00000010: 9e5f bb3c a5c1 153e 889c 813b d1cb a0be
00000020: 0868 babe e3b7 f0bc bfdb 95bd a703 2fbe
00000030: 7e56 4cbe c0f8 8fbf 1f94 fabe 3b5c 9bbe
00000040: 5975 9dbd 9b80 4cbe e8e2 eebd 9609 683e
00000050: 8b94 01be 55e5 6a3d 1199 afbd 4152 ebbe
00000060: 8faf 1bbe da54 da3c e377 b5be 7648 8fbe
00000070: 038b 28be 7c06 10be 1057 87bf 2822 193d
00000080: f310 6dbe e58d 80be 5a56 82bd 4f7a 32bf
00000090: 2cae 9fbd 70de 0f3e 8306 c8bc 39ec 38bf
000000a0: 8e2d 5fc0 928c edbd 1627 90bc 7ebb 36c0
000000b0: 16f2 0dbd db65 27bf d63f 46bf 5ae7 89bf
000000c0: 30c7 c0bc b6fe 66bf 9c35 593e 9810 9bbe
000000d0: 42ca 863e 9ec3 803c fd12 cabc 8f4a 00be
000000e0: 94c6 d4be d11c 07be 8bd2 6abf 2640 73be
000000f0: 4c44 243d c116 29be e70f 8c3e 1e03 383c
00000100: f23a eabd 4e09 bfbe 68cc 1cbc cafa 6abf
00000110: 9050 adbe cd2f 2bbf 9ca3 94be d23d fdbd
00000120: df30 51bf fb34 debd 380c d03d fefe f6be
00000130: d59e 0ebd e901 93bf e11b d0be 51ad 5ebf
00000140: 5c5b 3b3e 4428 47be f986 a83d 9b3c a5bd
00000150: cf59 7a3d 864e 40be 7b8d 60be 7936 3a3d
00000160: 4ef0 b8be 28e6 8ebd 2892 e1be 2234 1fbe
00000170: 749b c83d 8946 a8be b541 acbd f897 85bd
00000180: 3e51 51bd 324c a63d ff8e 59bd 4612 bebe
00000190: 6a69 123c 6122 4f3d 5cf3 0bbf 8585 45bf
000001a0: 84a7 93bf 5b28 eebd a7a7 553d 21a6 d4be
000001b0: 6773 363e 5f28 e4be f46e adbf 3612 19bf
000001c0: 2e8b 083d d9bf 4dbf c446 fc3d 5652 b83c
000001d0: bf23 a8bd 9285 a93d 3fc5 69be f00d 5abe
000001e0: 7312 dbbe da76 4abd edde b8be bb89 babc
000001f0: 6a24 0dbf 263b b1be 279d d53d 11f5 1cbd
00000200: 9031 2dbb a8fc c9bd 2abe a73d 836a 72be
00000210: 2945 b73d 6c0c a8bd 6ef8 aebc b139 94be
00000220: 2728 17bf 386d 813e 7e61 593d 0d4b 4abd
00000230: d89d 84be b5ac c4be a112 5fbf 9158 acbe
00000240: a847 ee3d 1c73 9abf a926 433e 3897 2abd
00000250: 273e a6bc 02ae 213d 717d 8abe 70c1 1bbf
00000260: b40e ea3d 021f 11be 7e5b 4fbf 4df4 21be
00000270: c4f6 48be 77d8 51bf 7e90 3e3d 7f85 22bd
00000280: 48ad b7be a263 443e 4ab5 2c3c d7a7 66be
00000290: 129a 0a3e 608e 27bf 9945 27bd 5204 a9be
000002a0: 5f4a 31bf 2917 d5bd 9640 6ebe 9d58 9abe
000002b0: 01e1 093e 5cff 89bf 776c babe fccb 843e
000002c0: 7f58 c1bd d1f5 05bf 79db 54bd 1418 383b
000002d0: c661 dfbd fb6e aa3e 7e5f 113c a87d f23d
000002e0: 898e a7be 2793 e93e 0588 05bf c223 a73d
000002f0: ad2b b4be 7b89 ecbe 9a5c 4bbe 65da bdbd
00000300: 399d 393e 8b74 a43d 604b 753e f256 a9be
00000310: 9080 cdbe 8567 33be 4bda 6cbe bff7 963e
00000320: 4fdb 55bf c636 33bc 4e51 46be 4f18 1abe
00000330: 4b4f 95bf 37b2 8abf bef4 afbe 92b7 6dbe
00000340: 56d0 b73d bd1a f439 74e6 8ebe 1c38 32bd
00000350: 4abe 703d 784d 3e3e a745 b7bd b3df 52be
00000360: c20e 06bf 3e34 1b3e cdef 26bf 1fe6 c13c
00000370: caff 21be c369 02bf 9e72 19be 8812 95bc
00000380: a1c7 7cbe 513f 77be 9bb6 06bf d428 633e
00000390: c1e1 b43c a46e 17bf ba26 07bf a90a 0bbf
000003a0: 1c93 80bf f034 fc3c 4d2e 723e 079e b2be
000003b0: 0dd1 86bd 11a7 0fbf da26 ccbd daef 85be
000003c0: 0edc 733d 3e7e d7be ffd9 dfbe f36f 00be
000003d0: 0096 6e3d b965 67be c8fc b83d 4427 13be
000003e0: 1b18 d1bc d410 47be 2ce2 25bf a485 88be
000003f0: 42af 1abf 409d 96bf bae1 283e 9710 afbd
-0.11774557 -0.13130601 -0.013083542 -0.047911115 0.022872742 0.14624651 0.0039554276 -0.314055
-0.36407495 -0.029384559 -0.07317304 -0.17091237 -0.19954869 -1.1247787 -0.48941132 -0.30343804
-0.07688398 -0.19970934 -0.11664373 0.22659907 -0.12654321 0.057347614 -0.08574117 -0.45961192
-0.15203689 0.026651789 -0.3544303 -0.2798497 -0.16459279 -0.14064974 -1.0573444 0.03738609
-0.23150997 -0.25108257 -0.063641265 -0.6971788 -0.077968925 0.14049697 -0.024417168 -0.7223545
-3.4871554 -0.11599077 -0.017596763 -2.8551936 -0.0346547 -0.65389794 -0.77441156 -1.0773728
-0.02353248 -0.9023241 0.21211857 -0.30286098 0.26326185 0.015718278 -0.024667257 -0.12528442
-0.41557753 -0.13194586 -0.91727513 -0.2375494 0.040104195 -0.16512586 0.27355883 0.011231212
-0.11437024 -0.37311786 -0.009570219 -0.91788924 -0.33850527 -0.66869813 -0.29031074 -0.12365307
-0.81715196 -0.10849949 0.101585805 -0.4824142 -0.034819443 -1.1484958 -0.4064627 -0.8698321
0.1829657 -0.19448954 0.08228869 -0.080682 0.061120804 -0.18779954 -0.2192897 0.045462105
-0.36120838 -0.069774926 -0.4405682 -0.15547231 0.09795275 -0.32866314 -0.0841097 -0.06523126
-0.05110287 0.08120002 -0.053114887 -0.37123317 0.0089362655 0.050569896 -0.5466821 -0.7715686
-1.1535497 -0.11628791 0.05216184 -0.41532996 0.1781746 -0.4456205 -1.3549485 -0.5979341
0.033335857 -0.8037086 0.12318185 0.022500198 -0.08209943 0.0827743 -0.2282915 -0.21294379
-0.42787513 -0.049429752 -0.3610758 -0.022770753 -0.5513369 -0.3461544 0.10430365 -0.03831965
-0.0026427247 -0.098626435 0.08190568 -0.23673443 0.08948738 -0.08205494 -0.021358695 -0.28950265
-0.5904564 0.2527864 0.05307149 -0.04938798 -0.25901675 -0.38413015 -0.871378 -0.3366132
0.11634761 -1.2066379 0.19057716 -0.04164812 -0.020293308 0.039472587 -0.2704883 -0.6084204
0.11428586 -0.14171985 -0.8099898 -0.1581585 -0.19625384 -0.81970924 0.046524517 -0.039678093
-0.3587439 0.19178632 0.01054127 -0.22524963 0.13535336 -0.6545162 -0.040837858 -0.3301111
-0.69254106 -0.10404808 -0.23266825 -0.30145732 0.13464738 -1.0781054 -0.36410877 0.25936878
-0.094407074 -0.5232821 -0.051967118 0.0028090524 -0.10907321 0.33287796 0.008872865 0.11840373
-0.32725933 0.4562008 -0.52160674 0.08161117 -0.35189572 -0.4619864 -0.19859543 -0.09270171
0.18126382 0.08030041 0.23954535 -0.33074147 -0.40137148 -0.17519958 -0.23130147 0.2948589
-0.83537763 -0.010938352 -0.19366953 -0.15048335 -1.1664823 -1.0835637 -0.3436641 -0.23214558
0.08975284 0.00046559228 -0.27910197 -0.04351054 0.058775224 0.1858424 -0.08948832 -0.20593147
-0.5236627 0.15156648 -0.65209657 0.0236693 -0.15820232 -0.5094263 -0.14985129 -0.018197313
-0.24685527 -0.24145247 -0.52622384 0.22183543 0.022080304 -0.591532 -0.5279347 -0.5431314
-1.0044894 0.030786961 0.23650475 -0.3488619 -0.06582842 -0.561143 -0.09968348 -0.26159555
0.059536032 -0.42088503 -0.43721005 -0.12542705 0.05824852 -0.22597398 0.09032589 -0.14370447
-0.02552419 -0.19440013 -0.64798236 -0.2666446 -0.6042367 -1.1766739 0.16492358 -0.08548086

fc3.bias f4 [10]
00000000: 1627 c0be 2c04 d53c 05d9 863e 9882 533e
00000010: 7fed 6cbf 5b40 a73e aa33 5a3e 2951 abbc
00000020: 75b8 3b3e 77b1 67be
-0.3752982 0.026002966 0.26337448 0.20655286 -0.9254989 0.32666287 0.21308771 -0.020912724
0.18332084 -0.22626291
